models/train_in_SC_best_model.pth (torch, 125698 bytes, 32 tensors)

ODEfunc.W_3 f4 [48, 48]
000000 e2 89 b7 bd 71 87 ff 3c 8d e2 07 3e 7f c2 16 bd
       -0.08961846 0.031192513 0.13270016 -0.03680658
000010 38 6b d7 bc 2c 06 5a 3b 02 84 fb bb dd 19 05 3e
       -0.026296243 0.003326784 -0.0076756487 0.12998147
000020 eb 6a 4c bd 46 75 23 3c 15 b1 bb bc 32 00 1a 3b
       -0.049906652 0.009976691 -0.022911588 0.0023498652
000030 ef bb 0c bd 77 4f 84 3d 18 04 af 3d 77 fd 05 3e
       -0.034358915 0.06460469 0.08545703 0.1308497
000040 72 f9 20 3d ff fe 95 3d 60 74 30 3e bf 04 ab 3c
       0.03930039 0.07324027 0.17231894 0.020876287
000050 10 49 e2 3b f5 bc 54 bd 00 aa 6d 3d d8 4f d7 3c
       0.0069056824 -0.051938016 0.058023453 0.02628319
000060 8c 18 db bc 55 b8 7f 3c 2a 4f 74 3c 0f 10 ab bd
       -0.026745103 0.015607913 0.014911452 -0.08352672
000070 10 09 20 bd c4 c3 09 3e 76 61 9c bd 84 27 47 3d
       -0.039071143 0.13453585 -0.07635777 0.04862167
000080 dd 20 da 3b 44 22 bf bd d9 f3 b2 bd 1a b4 32 3e
       0.0066567496 -0.093327075 -0.087379165 0.17451516
000090 2f ae b8 3c e6 21 2e 3e 7c 9f 11 3e 3a 77 b8 bb
       0.022543995 0.17005119 0.14220995 -0.0056294473
0000a0 c3 13 a0 3d cc 42 4b bd 64 50 ae 3c 7a d4 84 3d
       0.07816269 -0.04962425 0.021278568 0.06485839
0000b0 07 81 6d bc 02 db 09 be fe 4f d3 bd 5f 84 91 bd
       -0.014496095 -0.13462451 -0.10317992 -0.07105326
0000c0 ab 03 81 bb a0 de 1b 3d 70 1d 7c 3b 3e ad 10 be
       -0.003937205 0.03805411 0.0038469695 -0.14128587
0000d0 b8 3e da 3d 70 36 19 3d cf 06 0a 3c a4 48 14 3d
       0.10656494 0.03740543 0.008424475 0.036202088
0000e0 a3 96 6a 3d 8e dc 80 3d 73 ed a8 bd d5 52 a3 bc
       0.057272565 0.062920675 -0.08248415 -0.019936958
0000f0 03 5d 09 3e fa 00 dc 3d e2 f9 1b 3c 86 25 56 3d
       0.13414387 0.10742374 0.009520026 0.05228188
000100 e9 36 0f be 0e b8 64 bc 9d e5 17 3a e3 26 ea 3d
       -0.1398579 -0.013959898 0.0005794408 0.11433198
000110 9a df 4c 3d bd c5 25 3d a4 b2 0d 3e 71 88 58 3c
       0.05001793 0.04047178 0.13837677 0.013216124
000120 de 32 79 bd ea 04 94 bd 72 29 1e 3d 6e fc 43 3d
       -0.060839526 -0.072275 0.038613744 0.047848158
000130 69 cb ce bd 85 68 47 bc 3e 03 01 bd 30 be fe bd
       -0.10097391 -0.0121709155 -0.031497233 -0.12438619
000140 37 dd 26 3e 1f 5d 10 3e a4 5b a0 bc 13 25 06 bd
       0.16295324 0.14098023 -0.019574948 -0.0327502
000150 d3 82 f2 bc 20 4a 19 bc 6d 46 1d be a9 c0 5e bd
       -0.029603397 -0.009356052 -0.15358897 -0.054382954
000160 18 9b 46 3e d6 df cb bc 23 66 fa bc 5c 45 10 be
       0.19395101 -0.024887007 -0.03056628 -0.14088959
000170 6a 36 25 3d e0 53 b7 bc 09 13 f9 3b ad da 48 3d
       0.040335096 -0.022378862 0.007601146 0.04903667
000180 65 60 55 3d b0 ee fe 3d 3a 3b da 3b 86 5a af 3d
       0.052093882 0.1244787 0.0066598924 0.08562188
000190 f2 55 25 3e e0 a8 38 3d 2a 90 96 3d 6b 78 18 3c
       0.16146067 0.045082927 0.07351716 0.009306054
0001a0 76 32 b3 bd da 6d 23 3e fd c2 6e 3d dc 4d 0b 3d
       -0.08749859 0.15959874 0.058291424 0.0340098
0001b0 56 44 f2 3d d4 00 d6 bd 2e bf 17 be 8d be a7 bd
       0.1182944 -0.10449377 -0.14819023 -0.081906416
0001c0 82 66 0f be 64 aa 34 3e 52 e2 34 be ef f5 31 3e
       -0.14003947 0.17643124 -0.1766446 0.17378972
0001d0 2f fa ee bc 17 03 50 be bc 47 6f bc 23 46 c6 bd
       -0.029172031 -0.20313679 -0.014604505 -0.09681346
0001e0 a1 2f b6 3d c2 b7 96 bd 07 4a 19 3d 2f 2b 1a 3d
       0.08895803 -0.07359268 0.037424114 0.03763884
0001f0 e8 27 91 3d 92 d5 85 3c e4 d5 40 be 81 74 df bd
       0.0708769 0.01633719 -0.18831593 -0.10910893
000200 fe 4e b5 bd db ce 28 3e 8b e5 3e 3e 16 7b 80 bd
       -0.08852957 0.16485159 0.18642251 -0.06273477
000210 67 4d 90 bd 52 85 71 bd bd a3 5e bd a4 9e 49 39
       -0.07046013 -0.058965035 -0.05435537 0.00019227952
000220 81 fb ca 3d 2b 13 21 be 8b d3 92 3c 52 ea f9 bc
       0.09911252 -0.15729968 0.017923137 -0.03050724
000230 7c 32 55 bd 37 88 bd 3d b5 bb ca 3d 82 f8 4d 3d
       -0.0520501 0.092544965 0.098990835 0.050285824
000240 9a d2 f2 3c 26 b5 3d ba ea 7c 9d bd 1b 8b 63 bd
       0.029641438 -0.0007236771 -0.07689841 -0.055552583
000250 1a 35 51 bd 33 78 6a 3d f3 17 2f 3c 69 76 92 3c
       -0.051076032 0.057243537 0.010686862 0.017878728
000260 b7 43 f2 3b 60 f5 01 bd db b3 1b 3e 7d af ce 3d
       0.007393326 -0.03172815 0.15205328 0.100920655
000270 fe de d0 bd 3f ee b1 3d ec d5 aa 3c 9e 0e d2 3d
       -0.101987824 0.0868802 0.020853959 0.10256694
000280 21 00 06 3d 35 e0 46 3d 9d f4 be 3b ae ea e9 bd
       0.032714967 0.048553664 0.0058275 -0.11421715
000290 31 3a 05 be 27 d2 a8 3d 5d b7 85 bc 26 5f 95 3d
       -0.1301048 0.082432084 -0.016322786 0.07293539
0002a0 c0 4b bf 3d b0 6f 29 3d e9 1c f3 3a 15 87 e6 bd
       0.0934062 0.04136628 0.0018548045 -0.112562336
0002b0 0e 20 e6 bd ff bd 4d bc 54 9b 3f 3d 80 b1 34 3e
       -0.11236583 -0.012557506 0.04677899 0.17645836
0002c0 e1 1f 2b be 1a ca 30 3e 5a 07 91 bc a5 5e 73 bc
       -0.1671138 0.17264596 -0.0177037 -0.014854108
0002d0 8d da dc 3d ce 74 0c bd dd 9b 5e bc 8c de 8e 3c
       0.10783873 -0.03429108 -0.013586965 0.017440103
0002e0 a6 aa 7d 3e 19 16 af bd 7d 99 f1 bc 7c 88 a8 bc
       0.24772128 -0.08549137 -0.029492134 -0.020572893
0002f0 cd 0e dc 3d 76 f0 8a 3d 99 7d 07 be 5d 02 e3 bd
       0.107450105 0.067841455 -0.13231505 -0.11084435
000300 0a cb 5a bd 39 6c 4d 3c df 91 8a bd 12 c9 e6 bd
       -0.05341629 0.012538009 -0.06766104 -0.1126882
000310 6e 54 91 bd 4b de 8d bb 11 6d 89 bd 81 bb 17 3d
       -0.07096182 -0.004329478 -0.06710256 0.037044052
000320 b6 ce eb bd 03 88 e6 3b 59 f7 d4 3c 59 de 95 be
       -0.11514036 0.007035257 0.02599685 -0.292712
000330 12 7c 52 be ea c5 2d be cf 10 51 bc 43 85 7e bd
       -0.20555142 -0.1697003 -0.012760355 -0.062138807
000340 91 4c 27 3c 28 1d 98 3d ab e1 5d bd b0 2b 0e be
       0.010211126 0.07427436 -0.054170292 -0.13883853
000350 91 81 ef 3c 78 f7 4b be ca 67 b2 3c c2 22 df bc
       0.029236587 -0.1991862 0.021778006 -0.027238254
000360 6d 2a 32 bc fa 81 a1 bb 4b 9f 98 bd 2f d5 e1 3d
       -0.010874373 -0.0049288245 -0.07452258 0.1102699
000370 bf f6 1c bd 32 18 fa 3c 8b 7f 85 bd c2 59 b5 bd
       -0.038321253 0.030529115 -0.065184675 -0.088550106
000380 5e 4e d0 bd f4 f7 0d be ac 5c 1f be a6 c7 86 3e
       -0.10171197 -0.13864118 -0.15562695 0.26324195
000390 41 0e 03 3e 7e 00 b4 bd 1e 2b a0 3b 9d 45 94 3c
       0.12798406 -0.087891564 0.0048879525 0.0180996
0003a0 ab 84 63 3d e4 e3 69 3e 2d c4 58 bd 35 28 bd bc
       0.055546444 0.2284084 -0.052921463 -0.023090461
0003b0 d7 b9 70 be 00 31 d1 bd e8 c3 a0 bd b1 27 b4 3d
       -0.23508392 -0.10214424 -0.07849866 0.08796633
0003c0 e2 55 1a 3e 69 e6 36 3d c9 f2 f3 bd 5d 91 b9 bd
       0.15071824 0.04465333 -0.11911542 -0.09060929
0003d0 47 ed ed bc b4 b0 b3 bc d0 59 1e be 0f be cf 3d
       -0.029043807 -0.021934845 -0.15463948 0.10143673
0003e0 72 d9 1a 3d ed 17 6d be 9a 36 b1 3d 32 23 9e 3d
       0.03780503 -0.23153658 0.086529925 0.07721557
0003f0 20 90 5b 3e c5 21 18 3d e7 0d a6 3d 55 f5 bc 3b
       0.21441698 0.03714158 0.081081204 0.0057665505

ODEfunc.W_4 f4 [48, 48]
000000 5b 54 74 3c 2e 7d 14 3e eb cd c8 3c 46 4d 05 bc
       0.01491269 0.14500877 0.024512252 -0.008136099
000010 8f b2 00 be 74 8f dc bd 92 07 df 3c 64 18 86 3d
       -0.12568115 -0.10769549 0.02722529 0.06547621
000020 f7 60 47 bd e2 df 7e 3a 5f 1e 6a bc 46 47 07 be
       -0.048676457 0.0009722692 -0.014289468 -0.13210782
000030 5a be 86 3d ff b7 11 be eb 43 2c be 82 55 40 3d
       0.065792754 -0.14230345 -0.16822784 0.046956547
000040 5e e1 fc 3c 79 61 0b 3d c1 99 91 be d4 42 85 3d
       0.030869182 0.034028504 -0.28437617 0.06506887
000050 16 42 c3 3d bd 31 3d 3d 44 a4 25 be cb 31 12 bd
       0.09534089 0.046190012 -0.16175944 -0.035692018
000060 09 65 3c be 8a 11 10 be 9c c2 96 3d 28 26 d2 3d
       -0.18397917 -0.1406919 0.073613375 0.10261184
000070 2f d3 a9 bd d3 55 05 be d3 9f 13 3e 8e a2 b1 bc
       -0.08292233 -0.1302102 0.14416437 -0.021683957
000080 8c 9d 81 bc 9b 9d 66 3d 30 a7 d4 bd 88 4f 09 3e
       -0.015822195 0.056302648 -0.10383451 0.13409245
000090 aa 87 91 bd c7 af f5 bd 33 76 b6 3d d0 66 40 bc
       -0.07105954 -0.119964175 0.089092635 -0.011743262
0000a0 5c 3b ba bd 6c 9a 69 3d 40 8e a4 3e 32 03 a1 bd
       -0.09093353 0.057032034 0.32139778 -0.078619376
0000b0 30 1b ce bd fd 97 0f be 66 7e 2b 3e 48 7f 2e 3e
       -0.10063779 -0.14022823 0.16747436 0.17040741
0000c0 29 ef b0 bd c2 46 ca bd 9d e2 19 bd 22 f5 41 3b
       -0.08639366 -0.09876777 -0.03756963 0.0029595573
0000d0 cd 18 25 3d 52 62 20 bd 1f 3d 8b bd ce ab 68 bd
       0.040306855 -0.039156266 -0.06798767 -0.05680447
0000e0 07 a2 9f bb 35 ac 05 3e ec 88 9a bd db c4 53 3e
       -0.00487161 0.13053973 -0.07545647 0.20680563
0000f0 b9 61 1f 3d b9 ff c3 3d 23 16 5e be 43 b0 76 3d
       0.038911555 0.095702596 -0.21688132 0.06022669
000100 b8 4c 91 bc d5 0b bb bd 54 d9 93 3d 75 a8 62 be
       -0.017736778 -0.09133116 0.072191864 -0.22134574
000110 56 bf 82 bd 01 75 23 3e 8a d2 8e 3e cf f6 29 3d
       -0.06384151 0.15962602 0.27895004 0.04149514
000120 0d 8a 3e bd 72 63 2a bd 55 bd 19 bd c0 b2 b0 bc
       -0.046518374 -0.041598745 -0.037534077 -0.02156961
000130 19 3a ac bd 02 4e 2d 3c 82 53 13 bd a0 0d 20 3d
       -0.08409519 0.010577681 -0.03596831 0.039075494
000140 cb 8a fd bd 2c a4 75 3d 35 81 e6 3d 65 4a f0 bd
       -0.12379988 0.05997102 0.11255113 -0.1173294
000150 93 7f 26 3d aa e4 d3 bc 2d d8 24 be 6c da 29 3e
       0.040649008 -0.025865871 -0.1609809 0.16587228
000160 e9 bd 23 be a5 b8 6e bc b0 ee 9e bd 0c 2f 94 bc
       -0.15990414 -0.01457039 -0.0776037 -0.01808884
000170 4d fc 4b be 86 e9 b9 bb 36 80 1f be 7f 34 73 3e
       -0.19920464 -0.00567359 -0.15576252 0.23750494
000180 35 b7 97 bc 3b 27 3b bd 88 20 27 3d b1 8c 15 3d
       -0.018519977 -0.04569171 0.04080251 0.036511127
000190 21 ad 8b 3c ea 87 07 3e 57 e2 d9 bb 32 87 04 bc
       0.017050328 0.13235441 -0.0066492963 -0.008088874
0001a0 bf 57 bf bd 06 6e 63 3d 11 14 5e bd 48 c0 53 3d
       -0.09342908 0.05552485 -0.054218356 0.051697046
0001b0 ef af a4 3d 15 53 5a bc d4 89 eb bd 10 56 24 be
       0.08041369 -0.013325472 -0.11500898 -0.16048455
0001c0 8a 8d be 3c 78 9a 17 3e ed 83 89 bc a2 5b 05 be
       0.02326085 0.14805019 -0.01678654 -0.13023236
0001d0 8c c7 09 bd 8a 12 9d bd bd 4b 77 bd 2d 1e 0b 3d
       -0.03363757 -0.07669552 -0.060374964 0.033964325
0001e0 83 3f f5 3b 78 55 08 3e e5 b2 24 3d 69 88 5c bc
       0.007484378 0.13313854 0.04020967 -0.013460257
0001f0 53 81 8a 3d c4 5e 07 3e 32 10 17 bd f8 10 95 bc
       0.06762948 0.13219744 -0.03688068 -0.018196568
000200 93 8c 18 3d 80 5a f0 3d ca 18 96 3d d7 ca 5a be
       0.037243437 0.117360115 0.07328947 -0.2136644
000210 9e ad a4 3d f8 05 f1 3c 20 c9 af bd 1d e9 b3 bd
       0.08040927 0.029421791 -0.085832834 -0.08784697
000220 08 b7 ac 3d 66 97 3a be 9f 1c 23 3d 4c 68 1f 3c
       0.08433348 -0.18221816 0.039822217 0.009729456
000230 9e 34 47 3c 56 c1 91 3d 13 65 24 bd ab 97 39 3d
       0.012158541 0.07116954 -0.040135454 0.045310657
000240 56 3b 62 3d 03 99 d4 3d e5 41 75 bc 0f df 05 3d
       0.05523237 0.10380747 -0.014969324 0.03268343
000250 7d 23 b6 3d 2b 3c 68 bd eb c8 df 3d e6 c2 e4 bc
       0.088934876 -0.056698006 0.10926994 -0.027924966
000260 da 1a ae 3d ab aa 90 3d 72 59 be bd 00 b2 4c 3c
       0.08501215 0.07063802 -0.09294404 0.01249361
000270 80 68 93 bd b2 53 06 be c1 ea 27 be 9c 79 7a 3d
       -0.07197666 -0.13117865 -0.16398145 0.061151132
000280 09 c7 2b be f2 7b 82 3d cd ae a1 bd 39 3f 8f bd
       -0.16775145 0.06371297 -0.07894669 -0.06994481
000290 b4 b7 65 3d c3 f3 aa 3d 7a e4 94 bd 13 4f e9 bd
       0.056083396 0.08347275 -0.07270141 -0.11392035
0002a0 68 88 a0 3d a8 f3 48 3d a3 3e 95 3d a3 8f 47 be
       0.078385174 0.049060494 0.07287338 -0.19488387
0002b0 d6 ab 3f 3d 3b 8f 4f 3d e3 51 d6 3d e8 a8 bf bd
       0.046794735 0.050673705 0.104648374 -0.09358388
0002c0 32 54 1a bd 81 7d 45 bb c6 c1 d5 3d 7c 34 4d 3e
       -0.03767795 -0.003013462 0.1043735 0.20039552
0002d0 96 ae cb 3d 7d 47 5a bc c8 19 b7 bc a8 70 30 3d
       0.09945409 -0.013322708 -0.02235116 0.043076187
0002e0 48 5c a3 3d fc ee 16 3e a9 aa 9d 3d bb 06 0a 3d
       0.079765856 0.14739603 0.076985665 0.033697825
0002f0 59 00 3d 3d 73 d5 90 bd c9 12 b2 3d 8c 5d c7 bc
       0.04614291 -0.07071962 0.08694989 -0.024336599
000300 c7 af e0 bc 59 5c ee bd 36 10 8c 3c f7 c7 57 bc
       -0.027427567 -0.11638708 0.017097574 -0.013170234
000310 49 94 0c 3e db 96 03 3e c6 8b ee bd 00 27 e8 bd
       0.13728441 0.12850516 -0.116477534 -0.11335564
000320 c7 f9 9e 3d 9a 53 de bd ea ab 80 3d 98 05 8d be
       0.07762485 -0.108557895 0.0628279 -0.2754333
000330 72 04 93 bc 75 d5 5e bc cf 72 b0 3d 4c ed a3 3d
       -0.017946456 -0.013600697 0.08615648 0.08004245
000340 cb e4 72 3e fb 62 7d 3d 54 c9 0b 3d fe 20 dd bd
       0.2372009 0.061861973 0.03412755 -0.107973084
000350 24 82 7a 3e 31 08 a8 bd 46 cd 2f 3e db 78 29 3d
       0.24463707 -0.082046874 0.1716815 0.041375022
000360 78 ff ba bc 73 2d 5a 39 1b 54 10 3e d0 19 ae 3d
       -0.022826895 0.00020807031 0.14094584 0.08501017
000370 ba ee 20 3c 6c 32 c5 3c d0 df 04 3e 27 9d cc bd
       0.009822542 0.024071895 0.12976003 -0.09990912
000380 13 45 8f bd 83 9e 72 3d 2b 64 08 3e 42 1b 07 be
       -0.06995597 0.0592332 0.13319461 -0.13193992
000390 bf db 47 3b f7 82 01 bd ee ed 35 bd 22 d6 09 bd
       0.003049597 -0.03161904 -0.04441636 -0.03365148
0003a0 f2 9c 5d be 8f a6 c2 3d d1 77 ef bd 98 19 ce bd
       -0.21641901 0.09504425 -0.11692775 -0.10063475
0003b0 44 a2 1e 3e 5a 53 ff 3d c0 30 2f bd f4 8d 82 3b
       0.15491587 0.1246707 -0.0427711 0.0039842073
0003c0 eb 0a 33 bd 38 04 a5 3d c9 e9 b9 3c 8c e0 28 3c
       -0.043711584 0.08057445 0.022694485 0.010307442
0003d0 31 59 4c 3c 3f bd 89 bc 50 8a 5b 3c 0c 95 a5 3d
       0.012472437 -0.016813872 0.0133996755 0.08085069
0003e0 51 1e 6d 3e f1 63 f9 bc 06 cf 82 bd 70 e2 e3 3c
       0.23156096 -0.030443164 -0.06387143 0.027817935
0003f0 be cb 08 be a6 4d 4a 3d ff 01 de bd 0d a9 98 3e
       -0.13358971 0.049390458 -0.108402245 0.29816476

ODEfunc.alpha_n_dedunce.weight f4 [48, 48]
000000 65 14 8c 3c 86 bf 8b bd 2d 38 09 3d 57 dd 93 3b
       0.017099569 -0.068236396 0.03350084 0.0045124697
000010 78 dd b9 3d 44 32 16 bd bd 7c 3e 3c ee 83 c1 3d
       0.09075445 -0.03666903 0.01162642 0.09448992
000020 40 0d 2f be 4a 9b b7 3d 87 60 43 bd e6 b0 10 bc
       -0.17094898 0.08965166 -0.047699478 -0.008831238
000030 aa 53 23 be 1f 87 c5 bc 0d 24 35 be b2 23 23 bd
       -0.15949884 -0.024112282 -0.17689534 -0.039828964
000040 2d 6a 61 3b ab 70 98 bd 81 36 25 3e 3b 80 10 3d
       0.003439556 -0.07443365 0.16134073 0.03527854
000050 43 ee c9 3b 14 b5 eb 3d 05 69 56 3c 6e 56 02 bd
       0.006162436 0.11509147 0.013086562 -0.031820707
000060 f2 4e 4c bd 63 d8 9d 3d c5 f5 0c 3e cd 7d 99 bc
       -0.049879976 0.07707288 0.13765629 -0.018736744
000070 61 5e db bd e8 b1 ae bc f8 39 1f 3d 9c 8a 15 3d
       -0.10711361 -0.021325067 0.038873643 0.03650914
000080 71 ff e9 bc 02 1e b7 bb a8 2b 22 3d be b4 e7 bc
       -0.028564187 -0.005588294 0.039592415 -0.028284427
000090 3a 8c f0 bd dd 81 87 bc 0f a5 83 bd f6 6f f1 3d
       -0.11745496 -0.016541416 -0.06427967 0.11788933
0000a0 ed a4 0a 3e 06 a5 ab 3c 87 69 ef bd 38 91 d4 bd
       0.13539477 0.020952713 -0.116900496 -0.10379261
0000b0 88 9e f9 bd 61 b6 97 bd 31 e3 5a 3d 43 55 31 3e
       -0.121884406 -0.07407833 0.053439323 0.17317681
0000c0 0b 3e 02 3c 52 a2 b3 bd ed 08 0d be 3b a8 a9 3c
       0.0079493625 -0.087711945 -0.13772936 0.020710101
0000d0 3a f3 c5 3d 11 f3 a5 3d 54 0c cd bd f8 31 e9 3d
       0.096655324 0.08103002 -0.10012117 0.11386484
0000e0 60 0f d2 3d e5 e9 3b 3d ec 50 cb 3d f1 2b a3 bd
       0.10256839 0.045877356 0.09927544 -0.079673655
0000f0 94 86 02 3d 7a 2d 44 3e a6 6b 09 3d 5b 7f 42 3c
       0.031866625 0.19157973 0.033549927 0.011871184
000100 45 86 74 bd 24 2e 94 bd 21 af da 3d 17 43 85 3d
       -0.059698362 -0.07235363 0.106779344 0.06506937
000110 76 bb 38 3d af ef 0f be 48 5e ca bd 1b fc 11 3d
       0.04510065 -0.14056276 -0.09881264 0.035640817
000120 bf ab 8c 3c 5b 50 c2 3d 44 04 63 3e d8 03 c1 3d
       0.017171739 0.09487983 0.22169596 0.09424561
000130 49 fc de 3d 5a 4e 02 3e 8b 79 34 3c 4a 74 a9 be
       0.10887963 0.12725201 0.011015306 -0.33096534
000140 bb b7 1e be 9f 3b bb 3d a9 c6 c3 bb a4 6a 16 3e
       -0.15499775 0.09142231 -0.00597461 0.14689118
000150 9e 8f 60 bd 07 50 b1 3d 02 93 8a bc d6 e2 fa 3d
       -0.054824464 0.08657842 -0.016915802 0.12250297
000160 3c e0 c2 bc f0 09 02 be 74 87 0b be fb 87 cc bd
       -0.023788564 -0.12699103 -0.1362589 -0.09986874
000170 6a 36 8c bc 5e b1 06 3c 96 4a cf bd b5 61 ba 3d
       -0.01711579 0.008220999 -0.10121648 0.091006674
000180 6d 8f 62 bd b4 2d d9 3c af 6b e8 3d bd 42 43 bd
       -0.055312563 0.02651105 0.11348664 -0.04767107
000190 20 2c 57 be d3 a7 b7 3d 21 42 05 be b1 2f 01 3e
       -0.21012926 0.08967557 -0.13013507 0.12615849
0001a0 35 3f d6 bd c2 78 60 be 81 34 4c 3a 8c c4 91 3d
       -0.104612745 -0.21921065 0.0007789806 0.071175665
0001b0 c8 fa c2 3d 52 05 7d bc 42 8a da bd 51 da 49 3e
       0.09520489 -0.015443163 -0.10670902 0.19712187
0001c0 12 57 af bd f2 e7 ea bd dd 4e f8 3d 22 28 30 3d
       -0.08561529 -0.11470021 0.12124417 0.043007024
0001d0 38 33 28 be 6c 2b 2e bd 7e 50 db bc 13 11 34 be
       -0.16425788 -0.04252188 -0.02677178 -0.17584638
0001e0 93 c4 53 bd 87 8d d6 3a 03 67 aa 3d 10 e1 54 bb
       -0.05170114 0.0016369083 0.08320429 -0.003248278
0001f0 92 47 50 be a0 9b 7d 3c 8c 77 d8 3c 09 93 a3 bd
       -0.20339802 0.015478998 0.026424192 -0.07987029
000200 1e 78 9e bc c4 1b f9 3c 32 75 4a bb ef 70 f3 bd
       -0.019344386 0.030408747 -0.0030892608 -0.11886775
000210 40 33 18 be 74 ed c2 3d 8b f1 68 bd 90 fd 7d be
       -0.148633 0.09517947 -0.05687098 -0.24803758
000220 91 5d 3a be 4c 08 2f 3d fc be bd 3d 7b 19 82 3b
       -0.18199755 0.042732522 0.09264943 0.0039703227
000230 9b 96 2b 3e 6f a1 5b bd 43 61 39 be c9 32 06 3d
       0.1675667 -0.053620752 -0.18103509 0.032763276
000240 a7 47 47 3e 74 3a ad 3d 89 17 8b bd 53 71 34 be
       0.19460927 0.08458415 -0.06791598 -0.17621355
000250 99 61 8d bd 6f 87 f6 3d ed 93 2a bd 86 78 0d 3e
       -0.06903381 0.12037551 -0.04164498 0.13815507
000260 af c8 0a 3d 8c b3 92 be b3 ca 2c bd 90 08 8e bc
       0.033882793 -0.28652608 -0.042185497 -0.017338067
000270 ae 83 98 bd 34 94 94 be 79 90 f6 3d 75 09 bd bc
       -0.07446991 -0.2901932 0.12039275 -0.023075799
000280 9f 96 01 3e 21 87 23 3d 14 7e 7e 3e f0 5d e7 bb
       0.12655114 0.03992379 0.24852782 -0.007060759
000290 39 7c 9c 3d f9 f0 81 3d e4 65 b7 3d 2d 33 26 bd
       0.07640881 0.0634479 0.08954981 -0.04057615
0002a0 7a d3 70 bd 67 24 0c be e1 d6 ce bc f1 9c d1 bd
       -0.05879543 -0.13685761 -0.025248947 -0.10235012
0002b0 74 25 93 bd 7d ea 45 be 7a c0 02 bc 18 0c 03 3e
       -0.07184878 -0.19327731 -0.00798046 0.12797582
0002c0 06 79 b4 3b cc 7d e5 bd b8 e2 db bd 4a fa 7d 3c
       0.005507591 -0.112056345 -0.107366025 0.015501568
0002d0 26 e9 b8 bd dc 82 dd bd 11 bb c0 bc 83 8a 6e bd
       -0.090288445 -0.10815975 -0.0235267 -0.058237564
0002e0 e7 a2 81 bd 88 49 8c 3d bf 85 e9 3d 78 0a 4b 3d
       -0.06329899 0.068499625 0.11402463 0.04957053
0002f0 5a d9 28 bb 12 c8 fc 3d 43 1e c3 3d 10 11 8f 3d
       -0.0025764317 0.12342848 0.09527256 0.06985676
000300 b8 53 91 3d 2c b2 ab 3d 13 23 70 3d 9c 40 9c 3c
       0.07096046 0.08383593 0.0586272 0.019073777
000310 8b fb 6f 3d 79 db 73 bc 6d 9f c2 bc 85 16 b6 b9
       0.0585895 -0.014883869 -0.02375766 -0.00034730523
000320 90 dc 25 3d ef 1c 85 bd 31 d9 64 3e 35 c4 cf bd
       0.040493548 -0.06499659 0.22348477 -0.101448454
000330 b2 9d 68 bd d4 1d ba bd 9b 15 ad bd 5f 84 a6 bd
       -0.056791015 -0.090877205 -0.084513865 -0.081307165
000340 96 98 50 bd 26 79 d7 3c 70 5b 66 bc 22 6e b5 bd
       -0.050926767 0.026302885 -0.014059886 -0.08858897
000350 f9 c3 4c 3d 83 d0 06 3e 0d 18 4e bd ed cb 29 3d
       0.04999158 0.13165478 -0.050315905 0.041454244
000360 ff b6 2d 3c 2d 83 dd bb 7b 50 f5 bc bb 9b d7 3d
       0.010602712 -0.006760022 -0.029945603 0.1052775
000370 eb ba 13 3e ed 32 38 3d 1c c3 21 3c f9 37 ba bd
       0.14426772 0.04497044 0.009873178 -0.09092707
000380 16 51 8c bd 3f d1 e5 3d 36 ee e1 bd 7d 9e 5b 3d
       -0.068514034 0.11221551 -0.11031763 0.053617943
000390 30 d4 ea bc 3e ba c3 bd 42 2c 25 3e 9f 23 59 3d
       -0.028665632 -0.09557007 0.16130164 0.053012487
0003a0 1f 0b a2 3d 09 b4 c6 bd c3 78 5b 3a e7 97 49 bd
       0.079122774 -0.09702308 0.0008372182 -0.04921713
0003b0 93 4e 23 be d8 e5 13 be 8f 23 38 3e f4 6b 64 bc
       -0.15947942 -0.14443147 0.17982315 -0.013941754
0003c0 09 79 7a bd 02 c0 df bc b6 9f 6c bd a8 ea 09 3e
       -0.061150584 -0.027313236 -0.0577695 0.1346842
0003d0 fb fa 54 3e c7 a3 ec bd 22 23 d5 bd 2d eb 58 bd
       0.20798866 -0.115546755 -0.10407092 -0.052958656
0003e0 3c 88 82 3d 97 0c 4a 3c 82 98 9a 3b 2a 45 ac bc
       0.06373641 0.012332103 0.0047178874 -0.021029074
0003f0 dd a0 69 3e 30 83 27 3e 52 15 ae 3b 5c 36 07 3e
       0.2281527 0.16358638 0.0053126 0.1320433

ODEfunc.alpha_n_dedunce.bias f4 [48]
000000 00 00 00 00 00 00 00 00 00 00 00 00 00 00 00 00
       0.0 0.0 0.0 0.0
000010 00 00 00 00 00 00 00 00 00 00 00 00 00 00 00 00
       0.0 0.0 0.0 0.0
000020 00 00 00 00 00 00 00 00 00 00 00 00 00 00 00 00
       0.0 0.0 0.0 0.0
000030 00 00 00 00 00 00 00 00 00 00 00 00 00 00 00 00
       0.0 0.0 0.0 0.0
000040 00 00 00 00 00 00 00 00 00 00 00 00 00 00 00 00
       0.0 0.0 0.0 0.0
000050 00 00 00 00 00 00 00 00 00 00 00 00 00 00 00 00
       0.0 0.0 0.0 0.0
000060 00 00 00 00 00 00 00 00 00 00 00 00 00 00 00 00
       0.0 0.0 0.0 0.0
000070 00 00 00 00 00 00 00 00 00 00 00 00 00 00 00 00
       0.0 0.0 0.0 0.0
000080 00 00 00 00 00 00 00 00 00 00 00 00 00 00 00 00
       0.0 0.0 0.0 0.0
000090 00 00 00 00 00 00 00 00 00 00 00 00 00 00 00 00
       0.0 0.0 0.0 0.0
0000a0 00 00 00 00 00 00 00 00 00 00 00 00 00 00 00 00
       0.0 0.0 0.0 0.0
0000b0 00 00 00 00 00 00 00 00 00 00 00 00 00 00 00 00
       0.0 0.0 0.0 0.0

ODEfunc.gamma_e_dedunce.weight f4 [48, 48]
000000 7c d9 10 3e 93 82 f9 bd 38 a0 03 3d 5b 0b 20 3e
       0.14145464 -0.12183108 0.03213522 0.15629332
000010 e2 78 80 bd d9 26 83 bc 54 1e a6 3d 66 5f 5b bd
       -0.062730566 -0.016009735 0.081112534 -0.053557776
000020 75 94 52 be d5 bf 1a bb bf e0 aa 3d 18 c0 cc 3d
       -0.20564444 -0.0023612876 0.08343648 0.099975765
000030 d0 11 18 3c 68 1e 82 bd d1 9b bb 3a ea ea b1 bd
       0.009281591 -0.06353456 0.0014313405 -0.086873844
000040 1f 9b 03 be 39 02 40 bd 11 90 39 3d bb 8e 98 3c
       -0.12852143 -0.04687712 0.045303408 0.018622747
000050 60 c6 79 3d ba 52 0a bd 33 58 80 bd c8 99 5b 3e
       0.0609802 -0.0337703 -0.06266823 0.21445382
000060 84 fd 4b bc 63 53 9a bd ff 6e 20 be 3c 23 9c bd
       -0.01245058 -0.07535436 -0.15667342 -0.07623908
000070 48 7c 4b 3d 84 4b 98 3d 87 8f 0a be de 06 82 bd
       0.04967907 0.074362785 -0.13531314 -0.06348966
000080 0b 94 ee ba aa d4 b4 bb c1 b4 43 3d 8f b2 c6 3d
       -0.0018202079 -0.0055185156 0.047779802 0.09702026
000090 57 5e 1b bd 4d 71 da 3d 91 87 f9 3d 31 dc ad 3c
       -0.037931766 0.10666142 0.1218406 0.02122316
0000a0 9b f0 0c 3d 42 00 a1 3b a8 54 ae bd 7e 10 f9 3d
       0.034409147 0.004913361 -0.08512241 0.12161349
0000b0 ff 7b 02 be 00 83 ea bc fa ca 24 3e 5c 1e 6a bd
       -0.12742613 -0.028626919 0.16093054 -0.05715786
0000c0 f4 d5 48 bc 07 74 2f be d8 84 5a bc 01 08 2b be
       -0.012258042 -0.17134105 -0.0133373365 -0.16702272
0000d0 63 de 2b be ab f7 ff bd 8f ee 33 be b1 98 19 be
       -0.16784053 -0.12498411 -0.17571472 -0.14999653
0000e0 fb 8b ef 3b ea 49 87 3e cd 26 be 3d 27 cd cd 3d
       0.007310388 0.2642358 0.092847444 0.10048895
0000f0 f9 5b 9f bd 23 4c 76 bc 08 06 f8 bd e3 b4 db bd
       -0.07781214 -0.015032801 -0.12110525 -0.10727861
000100 0b 26 6a be 94 29 82 be cd 77 11 be 3f 2b 1f 3d
       -0.22866075 -0.25422347 -0.14205857 0.038859602
000110 04 e1 3a 3c fc fe 0d be 42 cd 25 bc a9 0e 27 bd
       0.011406187 -0.138668 -0.010119738 -0.040785465
000120 51 f6 05 3d 69 52 d8 bc 78 b2 94 bd 7b 27 7f be
       0.03270561 -0.026406484 -0.07260603 -0.24917404
000130 f5 ae c7 bc ac ea d0 3d b5 67 a2 bd 7b f6 89 3c
       -0.024375418 0.1020101 -0.07929937 0.016841164
000140 38 20 3b 3d 1c 7f 10 3d e0 72 ed 3d 83 9f d8 bc
       0.045685023 0.03527747 0.11594176 -0.026443249
000150 d1 05 cc bd 25 9b 7d bd b0 91 ac 3d fb 0b d6 bc
       -0.09962047 -0.061915535 0.08426225 -0.02612876
000160 04 be ba bd 8b 58 41 3a 8d 0a a4 3c 0e 28 07 3e
       -0.09118274 0.00073755597 0.020024562 0.13198873
000170 52 b6 88 3d 97 4d 95 bc a5 6a 0b 3e ef f9 da 3d
       0.066754 -0.018225474 0.136149 0.10692202
000180 38 9c ee bd 43 bf f3 3d 1d 80 f8 3b a0 3f 68 3c
       -0.1165089 0.11901715 0.0075836317 0.014175326
000190 86 f4 bb 3d 99 dd ca bc 0f 89 85 3e 6c b7 0c 3c
       0.091774985 -0.02476387 0.2608113 0.008588653
0001a0 4b 51 a4 bd f5 c1 25 be a8 6a 29 be 0e 45 10 bd
       -0.08023318 -0.1618727 -0.16544592 -0.035222106
0001b0 b5 61 8e bd 2d e1 89 bd 5c 57 b8 bc 90 05 7e bd
       -0.0695223 -0.06732402 -0.022502594 -0.062017024
0001c0 e6 42 87 bd 3e da c9 bb 33 49 91 3e be b8 9d bd
       -0.06604557 -0.0061600497 0.2837616 -0.077012524
0001d0 72 a9 24 3d 46 cb 0c be cf f2 6a bc 24 ff 48 bd
       0.04020066 -0.13749418 -0.014340117 -0.049071446
0001e0 66 ce ec bd 77 bc a0 3c 82 08 77 be e6 b0 7b 3c
       -0.11562805 0.019621117 -0.24124339 0.015362
0001f0 16 a4 76 3b 59 9c fe 3d ec 46 38 3d a2 8e 0b 3e
       0.0037634424 0.12432165 0.04498951 0.13628629
000200 70 d8 72 3c a3 77 49 bc cd 99 34 3c ff ec 71 bd
       0.0148221105 -0.01229659 0.011022997 -0.059063908
000210 4a f4 1f bd df bd 28 bd 49 2b d7 bd e0 d2 49 bd
       -0.03905133 -0.0411967 -0.10506303 -0.04927337
000220 48 11 97 bd eb ed 61 3d 6d ff b0 bc 5f 17 18 3e
       -0.07376343 0.055158537 -0.021606172 0.14852665
000230 d3 7d ea b8 be 83 98 3d c7 08 9c bd 4e b3 7c be
       -0.00011181426 0.07447003 -0.07618862 -0.24677774
000240 70 cc cc 3d f6 07 8c 3d 11 65 ab 3d de 8d 41 3d
       0.09999931 0.06837456 0.08368886 0.047254436
000250 ce 10 3b be ac 61 d1 3d 7c cc 00 be a0 9d f3 bd
       -0.18268129 0.102237076 -0.12578005 -0.11895299
000260 a9 2a 6e 3d 72 74 21 3e 61 d2 8d bd 87 21 50 3d
       0.058146153 0.15767077 -0.06924892 0.050813224
000270 9c ce 09 bd 1f 48 31 be fd f6 83 bd 9c 4e 14 3e
       -0.033644304 -0.17312668 -0.06443594 0.14483112
000280 52 fb 9d bd 3f 5e c9 bd c5 d9 db 3a 79 cb ec bc
       -0.07713951 -0.09832429 0.0016773274 -0.028905617
000290 e0 d4 6a be 50 c2 3e 3d 9c 15 96 3d 74 0b 67 3d
       -0.22932768 0.04657203 0.073283404 0.056407407
0002a0 64 96 a9 bd 7d 11 33 bc 7d c0 d4 3d 8b 4b 10 bc
       -0.08280638 -0.0109294625 0.10388277 -0.008807073
0002b0 12 d7 12 3e f1 9f 4c 3d bf 42 fa bd e1 58 c6 3c
       0.14339855 0.04995722 -0.12219762 0.024212303
0002c0 a8 17 cb 3d 0a cc 18 3e 25 7c b7 bd 2a ba 96 3d
       0.099166214 0.14921585 -0.089592256 0.07359727
0002d0 4e 92 9e bd 0b 1e f2 bd 95 11 1f 3d ff 5b 70 3c
       -0.07742749 -0.118221365 0.038835127 0.014670371
0002e0 ea 36 9b 3d ae d1 6a 3d 26 67 97 3d 72 d5 0a 3e
       0.075788334 0.057328872 0.07392721 0.13557985
0002f0 b3 70 84 bd 0c d6 91 3c e3 9e cd 3d 22 92 98 3d
       -0.06466808 0.01780226 0.10040071 0.074497476
000300 7e 8e e3 bd df c3 7c 3d 61 62 8b bc c2 9e 7b bd
       -0.111111626 0.061710235 -0.017014684 -0.0614307
000310 e9 7d a0 3d 85 24 9c 3d 2b 55 12 3d 99 17 7d 3d
       0.078365155 0.07624153 0.035725754 0.061790083
000320 7b 89 b9 3c ae 0a 26 bd 2c 53 a4 bd e7 84 e4 bd
       0.022648564 -0.04053753 -0.08023676 -0.111581616
000330 ab 70 8a bd 9d e9 3d 3d 3e f6 86 bc 46 ef 4f 3e
       -0.06759771 0.04636537 -0.01647484 0.2030612
000340 89 be 8a bc b5 ee 4d 3d ef ab e9 3d 61 bb 4c 3d
       -0.016936557 0.050276477 0.11409747 0.049983386
000350 4a 73 ad bd 92 eb 8e bd 1c 96 36 3e 18 ac 45 3d
       -0.08469255 -0.06978525 0.178307 0.048259825
000360 42 99 a5 3d ce 93 46 bd 72 04 44 3d 40 2d fc 3d
       0.08085872 -0.0484808 0.047855802 0.12313318
000370 1c df 09 3c 09 bf 9b 3e 9c 0b 34 bc 1f e5 ea 3d
       0.00841501 0.30419186 -0.010989096 0.11469483
000380 0c 65 2e be da 8f 68 3e c6 e3 44 3e 21 3c 38 3e
       -0.17030734 0.22711125 0.19227514 0.17991687
000390 19 98 15 bd 1b dd 26 bd 6e 98 02 be e7 cf c4 bd
       -0.036522005 -0.040738206 -0.1275346 -0.09609967
0003a0 57 3a c1 3d 0b ec ec bd b2 dc 66 bd ee f1 b2 bd
       0.094349556 -0.11568459 -0.056362815 -0.08737551
0003b0 4e c6 dc bd 19 b3 b0 bd e4 bf 85 bd ca ae 0a bb
       -0.10780011 -0.0862791 -0.06530741 -0.0021161311
0003c0 a0 2d c9 bb 52 eb c1 bc ec 37 e0 bd 60 92 d7 3c
       -0.006139472 -0.02367178 -0.10948166 0.026314914
0003d0 6f 59 9a 3c 32 5a 77 bd e9 6a 40 bd ce 2c 96 bd
       0.018841473 -0.06038875 -0.046976957 -0.073327646
0003e0 70 73 20 39 80 f6 64 bd 85 30 75 bd a2 73 ca bd
       0.00015301793 -0.055899143 -0.059860725 -0.098853365
0003f0 3b bb 35 bd fd df 71 3b a9 55 0b 3d a1 64 f1 bd
       -0.04436801 0.003690719 0.03401724 -0.117867716

ODEfunc.gamma_e_dedunce.bias f4 [48]
000000 00 00 00 00 00 00 00 00 00 00 00 00 00 00 00 00
       0.0 0.0 0.0 0.0
000010 00 00 00 00 00 00 00 00 00 00 00 00 00 00 00 00
       0.0 0.0 0.0 0.0
000020 00 00 00 00 00 00 00 00 00 00 00 00 00 00 00 00
       0.0 0.0 0.0 0.0
000030 00 00 00 00 00 00 00 00 00 00 00 00 00 00 00 00
       0.0 0.0 0.0 0.0
000040 00 00 00 00 00 00 00 00 00 00 00 00 00 00 00 00
       0.0 0.0 0.0 0.0
000050 00 00 00 00 00 00 00 00 00 00 00 00 00 00 00 00
       0.0 0.0 0.0 0.0
000060 00 00 00 00 00 00 00 00 00 00 00 00 00 00 00 00
       0.0 0.0 0.0 0.0
000070 00 00 00 00 00 00 00 00 00 00 00 00 00 00 00 00
       0.0 0.0 0.0 0.0
000080 00 00 00 00 00 00 00 00 00 00 00 00 00 00 00 00
       0.0 0.0 0.0 0.0
000090 00 00 00 00 00 00 00 00 00 00 00 00 00 00 00 00
       0.0 0.0 0.0 0.0
0000a0 00 00 00 00 00 00 00 00 00 00 00 00 00 00 00 00
       0.0 0.0 0.0 0.0
0000b0 00 00 00 00 00 00 00 00 00 00 00 00 00 00 00 00
       0.0 0.0 0.0 0.0

ODEfunc.node_to_edge.weight f4 [48, 96]
000000 91 4e 0a be 6f d6 36 be 74 00 76 bd 6d e9 72 3d
       -0.13506533 -0.17855237 -0.060059026 0.059304643
000010 25 4c 04 bd 58 a9 40 bd 18 5e 15 bd f3 4a f8 bc
       -0.03229918 -0.0470365 -0.036466688 -0.030309176
000020 59 f6 13 3d 03 19 85 3d 7c 4e 7f 3d ca dd d2 3c
       0.036123607 0.06498911 0.062330708 0.025740523
000030 5e 53 3e 3e 35 ab f6 3d 2b a5 e7 bc b3 7c fc 3d
       0.1858649 0.12044374 -0.028277 0.12328472
000040 06 7c 4a bd e5 12 b0 3a db 2e 71 bd a2 29 0d be
       -0.049434684 0.0013433365 -0.058882575 -0.13785413
000050 37 5c 31 3e 4e fd 84 bd fa c1 4a be be b2 dc 3d
       0.17320333 -0.064936265 -0.19800559 0.1077628
000060 e3 fb 2c be e6 43 38 bd 25 90 5d 3d 89 ee e9 bc
       -0.16892962 -0.044986628 0.054092545 -0.028556125
000070 fe 33 c3 bd 69 ea dc bb 5e ea c1 3d 7e bc 7e be
       -0.09531401 -0.006741811 0.0946853 -0.24876592
000080 a3 d3 8d 3c e2 e6 53 bd df 49 8c be b4 1c 8c bd
       0.01731283 -0.05173386 -0.2740011 -0.06841412
000090 86 04 a7 3d 56 7d 03 3e 70 8b 4c bd a6 00 c3 bd
       0.0815516 0.1284078 -0.049937665 -0.09521608
0000a0 6e be fe bd 9b 00 f0 bd 11 4e 04 be 1a b7 39 bd
       -0.12438665 -0.117188655 -0.12920405 -0.045340635
0000b0 43 b1 12 be 31 15 16 be 68 e4 eb 3d 9d 22 3c bd
       -0.14325432 -0.14656521 0.115181744 -0.045931447
0000c0 62 29 be bd c8 0b 24 be 84 74 84 3d 62 fc 51 be
       -0.09285237 -0.16020119 0.06467536 -0.20506433
0000d0 84 6b 25 3d 47 9d 9a bd a4 59 eb 3d 14 08 0e 3c
       0.040385738 -0.075495295 0.11491707 0.008668918
0000e0 54 49 54 be 1d e8 1d bd 2f b5 7e bc 59 4d ba 3d
       -0.20731097 -0.03855144 -0.015546127 0.09096784
0000f0 e2 4b f4 bc 42 c1 2d bd a1 65 7d 3d 7d 3b a8 bd
       -0.02982134 -0.042420633 0.0618645 -0.082144715
000100 c2 fe 50 3e 27 a6 8f 3b 4b a7 aa 3d 8d 73 91 bd
       0.20409682 0.0043838206 0.0833269 -0.07102118
000110 f0 25 35 3e f4 67 e9 3d 4b 26 29 be d8 b7 c2 3d
       0.17690253 0.113967806 -0.16518514 0.09507722
000120 cd 9b ac bd 69 30 98 3c df 98 d5 bd 60 8e 78 3d
       -0.08428154 0.018577771 -0.104295485 0.060682654
000130 34 08 f9 bc 95 dc e3 3d 19 8b 30 3c a2 f6 50 3e
       -0.03039942 0.11126057 0.010775351 0.20406583
000140 e0 f3 e4 bb 6c d2 17 bc c1 8c d8 bc 90 00 9b bd
       -0.00698708 -0.009266477 -0.026434304 -0.07568467
000150 25 09 41 bd 52 95 00 3b 18 e3 28 3d 39 28 fa 3d
       -0.04712786 0.0019620252 0.0412322 0.12214703
000160 87 41 39 3c f1 08 13 bb 20 44 63 3d 6e c5 88 3d
       0.011307127 -0.002243575 0.05548489 0.06678282
000170 f0 14 3a 3e 72 f4 b4 bb da 36 25 3e 37 83 04 be
       0.1817205 -0.005522304 0.16134205 -0.1294068
000180 a5 30 af 3d f1 29 5c 3e 4e a2 ef bd 33 95 57 3d
       0.085542 0.21500374 -0.11700879 0.05263252
000190 9d a1 2d bd 2a 40 23 3c 7c f9 b4 3d 57 60 94 bd
       -0.042390455 0.009964028 0.08836648 -0.07244938
0001a0 26 bb fc 3d 43 b6 84 bd f3 70 05 bd a9 82 48 be
       0.12340383 -0.06480076 -0.03257842 -0.19581093
0001b0 79 22 f9 bc 80 ab d7 bd 92 1d 41 3d fe c9 21 3c
       -0.030411946 -0.10530758 0.04714734 0.009874819
0001c0 86 58 17 3d bb 00 d8 3d 5a 92 a6 3b 71 79 71 3d
       0.036949657 0.10547014 0.0050833644 0.058953706
0001d0 14 74 36 3d 02 67 08 be ab 88 f5 bd 4d bc 13 3d
       0.044544294 -0.13320544 -0.11988958 0.03606825
0001e0 8d 27 28 be 7c 5c 5c 3d 25 12 ae bd 01 2c dc 3d
       -0.16421337 0.053799137 -0.084995545 0.107505806
0001f0 2a 02 17 3c 4a 60 99 bd ff ea 67 3d 0e 3f ed bc
       0.009216825 -0.07489069 0.056620594 -0.02896073
000200 c0 04 98 3d 5f c6 70 3e 80 ef 07 bd 70 38 84 bd
       0.07422781 0.23513173 -0.03318739 -0.06456077
000210 06 87 93 3d 8f 49 c4 3d 39 0c 86 3d 1f 9c d1 bd
       0.07203488 0.09584343 0.065453 -0.10234856
000220 fa c2 d6 bc ee fb 04 3e a9 b9 0a 3e a3 a7 e2 3d
       -0.026216019 0.12986729 0.13547386 0.110671304
000230 2c 75 e8 3d d2 77 d8 3d 09 f6 20 3e 9f 2d 93 bd
       0.11350474 0.10569729 0.15718855 -0.07186436
000240 19 ed b3 bd 87 8f 31 bd 6e 79 1b 3e eb ba 5f 3b
       -0.08785457 -0.04334977 0.1518304 0.0034138511
000250 91 0f 94 3d 0a e1 c3 bc 27 f2 66 3e 0f d8 41 bd
       0.072295316 -0.023911018 0.22553311 -0.04732519
000260 9f 2b 5c 3c 52 3b 44 bc e8 d4 7f bd 82 ad 75 3e
       0.013438134 -0.011977034 -0.062458903 0.23991969
000270 e4 06 08 3e ab cd 5b bd 8f a5 47 3e a6 ea e8 3d
       0.13283879 -0.053662937 0.1949675 0.11372881
000280 a4 85 a6 bd 7b fd 01 be dd 5a 77 bd 53 12 d3 bd
       -0.08130959 -0.12694351 -0.06038939 -0.103062294
000290 b6 f3 44 3c 1d 10 1b 3e d6 11 38 3d 10 15 e4 3d
       0.012020996 0.15142865 0.044938885 0.1113683
0002a0 7a 5c 91 bd 15 6a 36 3e e4 d3 89 bd b2 f3 49 bd
       -0.07097717 0.17813905 -0.06729868 -0.04930467
0002b0 91 66 f9 3c ed 1f bb 3d 83 3d 0f bc 4b 22 3b 3d
       0.030444415 0.09136949 -0.008742693 0.045687
0002c0 af 13 7a bd 92 b2 28 3e 2e b9 bb bd f3 a7 92 3d
       -0.061053928 0.16474369 -0.091661796 0.0716094
0002d0 67 4d 41 bc af 9c d6 bd 2d d9 0c be 6d 1e a1 3d
       -0.011798239 -0.10479104 -0.13754721 0.078671314
0002e0 f4 3f 6e bd 53 c0 ef 3c f2 7c 3b 3d 7e 6f 93 bd
       -0.05816646 0.029266512 0.045773454 -0.07199
0002f0 29 4c 02 be 1f 49 f7 ba 51 5d a4 bd 3d 97 da bc
       -0.12724365 -0.0018866396 -0.08025611 -0.026683444
000300 0e 9f a4 bd d2 d2 17 3e 59 b6 25 3c 6d 3c 97 3d
       -0.0803815 0.14826515 0.010114276 0.07384572
000310 bf 7e a2 3d b8 ca 13 3e 94 db 83 bd 82 6f 5d 3d
       0.07934331 0.144328 -0.064383656 0.05406142
000320 47 3e 76 3d 45 b3 c4 bd 78 57 5e be dc c2 78 bd
       0.060117986 -0.096045054 -0.21713054 -0.060732707
000330 a2 6b 1f 3e 73 bf fb 3c b8 a9 71 3d ca 68 0d 3c
       0.15568402 0.030730939 0.058999747 0.008630941
000340 f0 f7 85 bd 21 92 cc bd fe e3 99 3c 04 6e d5 bd
       -0.06541431 -0.099888094 0.018785473 -0.104213744
000350 c1 cb e7 bb 33 a7 d8 3d 9c 15 06 3d eb 31 12 3d
       -0.00707385 0.10578766 0.032735452 0.035692137
000360 f5 ac 32 be 66 31 40 bc a5 88 81 bd e2 2c 15 bd
       -0.1744879 -0.0117305275 -0.06324891 -0.036419757
000370 10 c3 c5 bd 56 9c 5c 3d 74 4a 2a be 36 ba 58 bd
       -0.09656346 0.05386003 -0.16629964 -0.05291196
000380 65 41 51 3e 4a 1a a1 3d e3 72 c1 3d 86 d9 6c bb
       0.20435102 0.07866342 0.09445741 -0.0036140396
000390 d8 61 a4 bc 22 0c 8d bd b0 ee 80 3d 84 da 8d bd
       -0.020066187 -0.0688708 0.06295526 -0.06926444
0003a0 22 d4 d2 bd 1f c5 c4 bd da 54 99 bd 73 64 78 be
       -0.102943674 -0.0960791 -0.07486887 -0.24257068
0003b0 a5 f4 2a bd b0 bc b2 bd cd 3f 01 be 4e dd c3 bc
       -0.041737217 -0.087273955 -0.12621994 -0.023909237
0003c0 3b dc cf bd 2e e2 c5 3d 5a d7 f5 3d e3 b4 cd 3c
       -0.101494275 0.09662281 0.12003966 0.025110668
0003d0 3c 0e 7a 3d 90 81 50 3e e5 3c a5 bd 03 43 04 3e
       0.06104873 0.20361924 -0.08068255 0.12916188
0003e0 89 e1 6c 3d de 12 8b 3d f3 e6 07 3d e5 5a de 3c
       0.057832275 0.06790708 0.033179235 0.027142951
0003f0 58 8d 22 3e d6 89 ca 3d 41 53 db bd 63 fc e9 bb
       0.15874231 0.09889571 -0.10709239 -0.0071406825

ODEfunc.node_to_edge.bias f4 [48]
000000 00 00 00 00 00 00 00 00 00 00 00 00 00 00 00 00
       0.0 0.0 0.0 0.0
000010 00 00 00 00 00 00 00 00 00 00 00 00 00 00 00 00
       0.0 0.0 0.0 0.0
000020 00 00 00 00 00 00 00 00 00 00 00 00 00 00 00 00
       0.0 0.0 0.0 0.0
000030 00 00 00 00 00 00 00 00 00 00 00 00 00 00 00 00
       0.0 0.0 0.0 0.0
000040 00 00 00 00 00 00 00 00 00 00 00 00 00 00 00 00
       0.0 0.0 0.0 0.0
000050 00 00 00 00 00 00 00 00 00 00 00 00 00 00 00 00
       0.0 0.0 0.0 0.0
000060 00 00 00 00 00 00 00 00 00 00 00 00 00 00 00 00
       0.0 0.0 0.0 0.0
000070 00 00 00 00 00 00 00 00 00 00 00 00 00 00 00 00
       0.0 0.0 0.0 0.0
000080 00 00 00 00 00 00 00 00 00 00 00 00 00 00 00 00
       0.0 0.0 0.0 0.0
000090 00 00 00 00 00 00 00 00 00 00 00 00 00 00 00 00
       0.0 0.0 0.0 0.0
0000a0 00 00 00 00 00 00 00 00 00 00 00 00 00 00 00 00
       0.0 0.0 0.0 0.0
0000b0 00 00 00 00 00 00 00 00 00 00 00 00 00 00 00 00
       0.0 0.0 0.0 0.0

ODEfunc.edge_to_value.0.weight f4 [24, 48]
000000 50 f6 95 bd ed 2a 16 be b2 eb a4 be 31 d7 55 3e
       -0.07322371 -0.14664812 -0.3221107 0.2088287
000010 6c 95 9e 3d 89 88 6c be b5 55 f4 3d d7 49 70 bd
       0.07743344 -0.23098959 0.1193041 -0.05866417
000020 9d 73 ab 3d f0 12 89 be 6d ff 31 bd 32 f8 cb bd
       0.08371661 -0.2677226 -0.043456484 -0.09959449
000030 a0 07 52 bd b0 99 71 bd eb 54 63 bd b7 87 ed bd
       -0.051276803 -0.05898446 -0.055500906 -0.11598151
000040 b1 41 8f bc 50 4e 84 3d fd 8a 17 3d 45 fc 6f bd
       -0.017487379 0.064602494 0.036997784 -0.058590192
000050 42 7f f7 bd ed 5d 6c bb 97 94 24 bd 82 80 39 be
       -0.120848194 -0.0036066726 -0.04018077 -0.18115428
000060 b2 e4 07 be 0f 1e a7 3d 2d 30 bf bd a2 bb c5 bd
       -0.13270834 0.0816003 -0.09335361 -0.09654929
000070 34 68 88 bc f1 2a d7 3d 5f ad f8 3d 15 d9 56 bb
       -0.01665125 0.10506237 0.12142443 -0.00327832
000080 55 ff 9e 3c 13 51 c4 3b f4 6e b1 3d e3 fc 09 3e
       0.019408861 0.00599111 0.08663741 0.13475375
000090 35 a0 27 be a0 95 8e 3d a7 ef 62 bd b7 17 9e bd
       -0.16369708 0.069621325 -0.05540433 -0.07719367
0000a0 5d b9 0f be bc 37 cf bb 8d 59 ca 3b 45 d3 b2 bc
       -0.14035554 -0.0063237827 0.006175226 -0.021829257
0000b0 1a 34 68 bd 6f f1 39 3c 60 0a 65 3d 9a 1f b0 bd
       -0.056690313 0.011349066 0.055918097 -0.085997775
0000c0 58 39 4e bc af 1f 5e 3c e9 b9 0d 3d 1f 04 99 3c
       -0.012586914 0.013557359 0.034601126 0.018678723
0000d0 8b 05 c0 3d cb 40 71 bd e5 9d ee bd 56 bb f0 3d
       0.09376057 -0.058899682 -0.1165121 0.117544815
0000e0 72 6b b1 bd f0 61 4f bc ed f3 36 3d a2 e5 2e be
       -0.08663072 -0.012657627 0.04466622 -0.17079785
0000f0 85 2a f1 bb ce 2c 09 3d 04 e2 b7 bd ab 21 d6 3a
       -0.007359805 0.033489995 -0.08978656 0.0016336938
000100 e4 f2 d9 3d a5 78 87 3d 13 7c 4b 3c 69 bc 1d 3e
       0.10642031 0.06614808 0.012419718 0.15403904
000110 fe a5 dc 3c 79 59 db bd f1 99 f4 bc f4 84 07 3c
       0.02693462 -0.10710425 -0.029858561 0.008271445
000120 32 29 90 3d 0e ed cb bd 61 4d 19 be 5d 76 c0 bd
       0.070391074 -0.09957324 -0.14970924 -0.09397576
000130 b9 3b 5f bc b8 8f 81 bd bf d3 a6 3d 84 7b 6f bc
       -0.013625079 -0.0632624 0.08145856 -0.014616851
000140 e7 c8 5b 3e 70 ee ff bd 21 86 0a be d5 9e aa 3d
       0.21463357 -0.1249665 -0.13527729 0.08331076
000150 bf 63 f2 ba ba 03 8c 3d 54 58 0e be ef 1a 43 be
       -0.0018492861 0.06836648 -0.13900882 -0.19053243
000160 e1 ac 84 3d 81 d4 84 bc 81 29 b6 3d 5f ad 9a 3d
       0.064782865 -0.016214611 0.08894635 0.07552599
000170 68 aa 49 be 0d 21 96 3d 8e d4 0e 3c c4 ad f8 bd
       -0.19693911 0.07330523 0.008717669 -0.12142518
000180 88 b4 b1 bd 7f 24 bf bd 66 5b 82 3b dc 03 bb 3d
       -0.08677012 -0.09333133 0.0039781807 0.091315955
000190 e2 c6 4e bd 58 ed 15 be 8b e2 84 3d 45 de e6 bd
       -0.05048264 -0.1464132 0.06488522 -0.11272863
0001a0 21 12 96 3c 19 c3 a9 3d 15 88 fc bd 4a 9a 43 bd
       0.018319191 0.08289165 -0.12330643 -0.047754563
0001b0 b9 24 53 3d 75 98 cb bd b1 d5 d9 3d 87 7c 10 3d
       0.051548693 -0.09941188 0.106364615 0.03527501
0001c0 c8 8e 9f bc f9 57 71 3d d5 19 52 3e e2 2a 3e be
       -0.019477263 0.058921788 0.20517667 -0.18571046
0001d0 05 a8 99 bc 1d ad 11 be 25 0a cd 3d ff fb ea bc
       -0.018756876 -0.14226194 0.100117005 -0.028684614
0001e0 76 87 40 bd f9 ba 27 3c 94 47 dc bd 78 44 c5 bd
       -0.047004186 0.010237449 -0.1075584 -0.096322
0001f0 be 6f 23 3e e4 27 a9 bd 97 11 41 bc 8e 19 09 bc
       0.15960595 -0.08259562 -0.011783979 -0.008367909
000200 92 46 58 bd 60 cd dc 3c ad 37 c6 bd 3b 39 bc b9
       -0.052801676 0.0269534 -0.09678588 -0.00035900794
000210 ae 40 2f 3e 28 68 2d 3e 00 2a a3 3b 9c 64 67 3d
       0.17114517 0.16934264 0.004979372 0.056492433
000220 d8 28 64 3d 2a 02 28 bd 90 3c ba 3b f7 54 0d be
       0.055703014 -0.04101769 0.005683489 -0.13801943
000230 ee 7e 9c 3b 4b c7 dd 3d 03 bd 47 be fa 4f 7b bd
       0.0047758734 0.10829028 -0.19505696 -0.06135557
000240 35 a7 fb bd 97 a0 0a bb eb db 5d 3d 98 0d a1 39
       -0.122877516 -0.0021152848 0.05416481 0.0003071844
000250 af 3a f4 bd 39 54 ba bd 50 72 ed 3c 8c e6 b7 3b
       -0.119252555 -0.090980954 0.028985173 0.0056122
000260 b1 33 bf 3d d3 f7 a4 3c 92 02 9f 3d ac a3 2c 3a
       0.09336031 0.020137703 0.07764162 0.00065856683
000270 3a 14 03 be 24 3f 20 3e 8f 2d e4 bd bc 8e 14 3d
       -0.12800685 0.15649086 -0.11141502 0.036268935
000280 cc d5 f4 bd 90 80 cf bc 4e 6f 21 3d fa 7e bb 3d
       -0.11954841 -0.025329858 0.03941279 0.09155078
000290 7f 2a f4 3d 47 0b ef bd 1e 24 76 3b 2e 16 9a bd
       0.11922168 -0.11672073 0.0037558149 -0.07523762
0002a0 c0 13 06 3e 22 0d a2 bc d1 29 79 3d 4d 40 a0 3d
       0.13093472 -0.019781653 0.060830895 0.078247644
0002b0 3a 91 23 3e e4 d1 9d 3b ce d2 c4 bc 99 f7 49 be
       0.15973368 0.0048162807 -0.0240263 -0.19723357
0002c0 ae 04 8a 3d fe f4 97 bd e1 b4 18 bc cb 8d f2 bc
       0.06739174 -0.074197754 -0.009320469 -0.029608628
0002d0 8a 24 00 3e 49 38 a5 bd ea 22 2e 3d 88 61 8d 3d
       0.12513939 -0.08067376 0.042513765 0.06903368
0002e0 89 e4 1a bd 8a b1 28 3e 85 f8 cb 3d f4 7b 47 bc
       -0.037815604 0.16473976 0.09959511 -0.012175549
0002f0 a6 22 a0 3e 9e 5a 98 bd 37 5d 6b bd 4c 8b 82 bc
       0.31276435 -0.07439159 -0.057461943 -0.015935563
000300 f2 cf ba 3d 4e 4d 9a 3c 75 f0 c2 3d 97 be 43 3d
       0.09121694 0.01883569 0.0951852 0.047789183
000310 c2 df c7 bd 3a 41 e4 3c 2a d1 25 3e 9b cd cc ba
       -0.09759475 0.027863134 0.16193071 -0.001562524
000320 4f e3 3e 3d 0c e0 18 bd 5b f6 b4 3c 17 a5 68 bc
       0.046603497 -0.037323043 0.022090128 -0.014199517
000330 6c b9 89 3e 98 26 88 3b 4d b8 21 be 0b a9 9b bb
       0.26899278 0.0041549914 -0.15792961 -0.004750376
000340 42 63 28 3e 39 b6 e7 b7 0e eb 69 be 39 34 0b 3c
       0.16444114 -2.76222e-05 -0.22843572 0.008496338
000350 fd 5f 91 bd 22 f7 05 3d d6 fc 1c be 30 b7 b4 3d
       -0.070983864 0.032706387 -0.15330824 0.08824003
000360 36 e1 0e 3c ac b7 67 bd 88 93 bc bd 0c c0 95 bc
       0.008720687 -0.056571648 -0.09207827 -0.018280052
000370 37 4c b1 3d 75 13 b2 bc a9 c2 b2 bd e7 82 dd 3d
       0.08657115 -0.021737793 -0.08728535 0.10815983
000380 e9 d7 de bd c4 b7 c4 3d 96 a3 67 bd 06 e3 70 bd
       -0.10881025 0.09605363 -0.056552492 -0.058810256
000390 ed 53 fd 3d c4 2d bc bd 78 c0 c8 bc 8c 3f 99 bd
       0.12369523 -0.091884166 -0.024505839 -0.07482824
0003a0 d1 4f bc bd a4 e4 ad 3d 65 f6 0c 3e 4f 84 3d 3d
       -0.09194911 0.08490875 0.13765867 0.046268757
0003b0 bf bf af 3d 68 14 1b 3e b3 0d 30 3d e5 39 f1 3d
       0.085814945 0.15144503 0.042981815 0.11778621
0003c0 b6 cb 74 bd 30 5e 26 bd 0b ee 99 3a 17 ae 78 bc
       -0.059764586 -0.040617168 0.0011743916 -0.015178225
0003d0 5f 15 e0 bd 33 69 eb bd 2b f7 4d bd 75 65 88 3d
       -0.10941576 -0.114946745 -0.050284546 0.066599764
0003e0 e3 a7 12 be b4 73 34 bd 4c 59 ef bd 90 d7 07 3e
       -0.14321856 -0.044055656 -0.11686954 0.13265824
0003f0 ba b8 22 3d 9d 38 ba bc 74 26 81 bc e2 16 ef bd
       0.03972695 -0.022732073 -0.015765406 -0.116742864

ODEfunc.edge_to_value.0.bias f4 [24]
000000 00 00 00 00 00 00 00 00 00 00 00 00 00 00 00 00
       0.0 0.0 0.0 0.0
000010 00 00 00 00 00 00 00 00 00 00 00 00 00 00 00 00
       0.0 0.0 0.0 0.0
000020 00 00 00 00 00 00 00 00 00 00 00 00 00 00 00 00
       0.0 0.0 0.0 0.0
000030 00 00 00 00 00 00 00 00 00 00 00 00 00 00 00 00
       0.0 0.0 0.0 0.0
000040 00 00 00 00 00 00 00 00 00 00 00 00 00 00 00 00
       0.0 0.0 0.0 0.0
000050 00 00 00 00 00 00 00 00 00 00 00 00 00 00 00 00
       0.0 0.0 0.0 0.0

ODEfunc.edge_to_value.2.weight f4 [1, 24]
000000 f6 ad d5 bd cf 1f 15 bd 1d d9 ad bd 31 c4 47 3e
       -0.10433571 -0.03640729 -0.08488677 0.19508435
000010 1c a4 56 3d 88 93 34 be 89 11 ae bd f0 ed 91 3d
       0.0524026 -0.17634404 -0.08499438 0.07125461
000020 22 77 11 3c 98 b9 14 bd e0 72 25 bd 2b bc e6 bb
       0.008878501 -0.03630981 -0.040392756 -0.0070414743
000030 40 d1 b6 3d fa 0a c1 bd 0e 43 f1 3d e3 cf dc bd
       0.0892663 -0.09425922 0.11780368 -0.10781839
000040 7e 2b 15 be 03 7c 22 be 02 61 17 be 8d de a6 3d
       -0.14567372 -0.15867619 -0.147831 0.08147917
000050 a8 ee 8e bd c1 b2 c2 3d de 24 ad 3d 3c 95 3b bd
       -0.06979114 0.09506751 0.084542975 -0.045796618
